…
ub.status.busy":"2024-11-21T08:47:00.795402Z","iopub.status.idle":"2024-11-21T08:47:01.558707Z","shell.execute_reply":"2024-11-21T08:47:01.557811Z"},"papermill":{"duration":0.818277,"end_time":"2024-11-21T08:47:01.560338","exception":false,"start_time":"2024-11-21T08:47:00.742061","status":"completed"},"tags":[]},"outputs":[{"data":{"text/plain":["SpeechRecognitionModel(\n","  (transforms): Sequential(\n","    (0): Resample()\n","    (1): MelSpectrogram(\n","      (spectrogram): Spectrogram()\n","      (mel_scale): MelScale()\n","    )\n","  )\n","  (cnn): CNN2DFeatureExtractor(\n","    (conv1): Conv2d(1, 32, kernel_size=(11, 11), stride=(1, 1), padding=(5, 5), bias=False)\n","    (bn1): BatchNorm2d(32, eps=1e-05, momentum=0.1, affine=True, track_running_stats=True)\n","    (relu): ReLU(inplace=True)\n","    (maxpool): MaxPool2d(kernel_size=3, stride=2, padding=1, dilation=1, ceil_mode=False)\n","    (conv2): Conv2d(32, 32, kernel_size=(11, 11), stride=(1, 1), padding=(5, 5), bias=False)\n","    (bn2): BatchNorm2d(32, eps=1e-05, momentum=0.1, affine=True, track_running_stats=True)\n","    (conv3): Conv2d(32, 32, kernel_size=(11, 11), stride=(1, 1), padding=(5, 5), bias=False)\n","    (bn3): BatchNorm2d(32, eps=1e-05, momentum=0.1, affine=True, track_running_stats=True)\n","    (maxpool2): MaxPool2d(kernel_size=3, stride=(2, 1), padding=1, dilation=1, ceil_mode=False)\n","  )\n","  (transformers): TransformerModel(\n","    (embedding): Embedding(42, 640, padding_idx=0)\n","    (pos_encoder): PositionalEncoding(\n","      (dropout): Dropout(p=0.1, inplace=False)\n","    )\n","    (transformer): Transformer(\n","      (encoder): TransformerEncoder(\n","        (layers): ModuleList(\n","          (0-3): 4 x TransformerEncoderLayer(\n","            (self_attn): MultiheadAttention(\n","              (out_proj): NonDynamicallyQuantizableLinear(in_features=640, out_features=640, bias=True)\n","            )\n","            (linear1): Linear(in_features=640, out_features=640, bias=True)\n","            (dropout): Dropout(p=0.1, inplace=False)\n","            (linear2): Linear(in_features=640, out_features=640, bias=True)\n","            (norm1): LayerNorm((640,), eps=1e-05, elementwise_affine=True)\n","            (norm2): LayerNorm((640,), eps=1e-05, elementwise_affine=True)\n","            (dropout1): Dropout(p=0.1, inplace=False)\n","            (dropout2): Dropout(p=0.1, inplace=False)\n","          )\n","        )\n","        (norm): LayerNorm((640,), eps=1e-05, elementwise_affine=True)\n","      )\n","      (decoder): TransformerDecoder(\n","        (layers): ModuleList(\n","          (0): TransformerDecoderLayer(\n","            (self_attn): MultiheadAttention(\n","              (out_proj): NonDynamicallyQuantizableLinear(in_features=640, out_features=640, bias=True)\n","            )\n","            (multihead_attn): MultiheadAttention(\n","              (out_proj): NonDynamicallyQuantizableLinear(in_features=640, out_features=640, bias=True)\n","            )\n","            (linear1): Linear(in_features=640, out_features=640, bias=True)\n","            (dropout): Dropout(p=0.1, inplace=False)\n","            (linear2): Linear(in_features=640, out_features=640, bias=True)\n","            (norm1): LayerNorm((640,), eps=1e-05, elementwise_affine=True)\n","            (norm2): LayerNorm((640,), eps=1e-05, elementwise_affine=True)\n","            (norm3): LayerNorm((640,), eps=1e-05, elementwise_affine=True)\n","            (dropout1): Dropout(p=0.1, inplace=False)\n","            (dropout2): Dropout(p=0.1, inplace=False)\n","            (dropout3): Dropout(p=0.1, inplace=False)\n","          )\n","        )\n","        (norm): LayerNorm((640,), eps=1e-05, elementwise_affine=True)\n","      )\n","    )\n","  )\n","  (cls): Linear(in_features=640, out_features=42, bias=True)\n",")"]},"execution_count":59,"metadata":{},"output_type":"execute_result"}],"source":["model = torch.load('/kaggle/input/model/pytorch/default/1/model (2).pt')\n","model"]},{"cell_type":"code","execution_count":60,"id":"cf96ade6","metadata":{"execution":{"iopub.execute_input":"2024-11-21T08:47:01.668402Z","iopub.status.busy":"2024-11-21T08:47:01.668103
…
